model.pth (torch, 6824 bytes, 7 tensors)

fc1.weight f4 [32, 10]
000000 81 65 13 3e 34 4f 13 bc b4 6d 41 be 54 7b 35 be
       0.1439419 -0.008991051 -0.18889505 -0.17722827
000010 9e 46 ba be 90 03 85 be 01 b9 e2 bd b4 41 20 3d
       -0.36382002 -0.2597928 -0.11070443 0.03912516
000020 0a d3 9d be e3 3d 5a bf 7c 37 07 be 62 12 7b bc
       -0.30825073 -0.8525068 -0.1320476 -0.015324207
000030 3c 9d 2e bf 02 31 4f 3e 46 5d 6b be 83 d6 50 be
       -0.6820867 0.20233539 -0.229848 -0.2039433
000040 d5 c4 85 3e b8 03 24 3f 75 d3 a9 3e 8e 08 c6 be
       0.26126733 0.64068174 0.3316914 -0.38678402
000050 9e 0b 8c 3e d0 8c c2 be 1f 93 f3 3e 7f 52 d8 3d
       0.27352613 -0.37998056 0.47573182 0.1056261
000060 2e f1 bc bd ad 7b 37 3e d9 68 2c 3e 9d 0f 02 bf
       -0.09225689 0.17918272 0.16836871 -0.50805074
000070 61 6e 1d 3e e3 8a 8f be b8 9a 55 be 07 4d 97 be
       0.15374137 -0.2803565 -0.20859802 -0.29550955
000080 cc 93 c1 be 44 a1 46 3e 87 10 fd ba 1f d3 86 bc
       -0.37808073 0.19397455 -0.0019307294 -0.016458092
000090 b6 c9 25 be 2f e2 8b be 39 18 78 be 1d 7f 28 3f
       -0.16190228 -0.27321002 -0.2422799 0.6581896
0000a0 9b 12 da 3c 13 37 83 3e 5b d5 55 3e 8c e3 94 3e
       0.0266202 0.25627956 0.2088217 0.29079854
0000b0 ba b9 aa be b5 01 1f 3e 1f be a1 be 1f a8 f4 3d
       -0.33344823 0.15527995 -0.31590363 0.11946129
0000c0 df 0f 80 3e 31 a7 9e 3d 9d cf 3f 3e 1e c8 5f be
       0.2501211 0.07746733 0.18731542 -0.21853682
0000d0 0a e5 1d bf a4 6e 6d be da 15 56 be ab 82 44 3c
       -0.6167761 -0.23186737 -0.20906773 0.011994044
0000e0 f3 6c ae 3e 8e c6 08 3e 1f ab 2c bd 13 4d 16 be
       0.34067497 0.13356993 -0.04215538 -0.14677839
0000f0 e8 cc 73 bd f2 88 8d bd 6a e5 0d 3e d7 03 83 be
       -0.059521586 -0.06910886 0.13857046 -0.25588867
000100 4e 27 d8 3e 92 20 fe 3c 3b bf a9 3e 9b 5a 8e 3e
       0.42217487 0.03102139 0.3315371 0.278035
000110 a4 17 01 3d cc 2a ee be 9c 2e a8 3c d8 3c 86 3e
       0.031516686 -0.46517026 0.020530038 0.26218295
000120 31 47 27 3f a7 8a 5b 3e 25 3e df bd 3e ed b5 3d
       0.65343004 0.2143961 -0.10900525 0.08883141
000130 27 40 18 3d 35 91 1e bd 63 43 27 3e f6 df 1c 3a
       0.037170555 -0.0387127 0.163343 0.00059843005
000140 70 53 03 be ae b3 fd be f7 37 95 bd 58 8f b2 be
       -0.12824798 -0.49551147 -0.07286065 -0.34874988
000150 b1 f5 01 3e 0f ac a2 3e 3b d2 b5 3e 07 e4 83 3e
       0.1269138 0.31771895 0.35511956 0.2575991
000160 86 32 95 3e 54 26 80 3e 1d 4f 53 3e 4f 8f 2b 3e
       0.2914011 0.25029242 0.20635648 0.16753887
000170 5e bd da 3c 90 1b f8 be 4e 48 16 3e 3a ae a6 be
       0.026701625 -0.4845853 0.1467602 -0.325548
000180 e6 7d 09 bf ef 70 7d 3e ec b3 ff 3d c9 3c 0c 3e
       -0.5370773 0.24750112 0.12485489 0.13695063
000190 1c e5 2b be 46 80 94 bc 9e e4 ef bd ce 27 90 be
       -0.16786617 -0.018127572 -0.11713527 -0.2815537
0001a0 47 7a 8e bd df fa 83 3e 59 7c 75 3e 85 7f 81 3e
       -0.06956916 0.25777337 0.23973216 0.25292602
0001b0 a8 5f 09 3b 54 57 b3 be 5f f5 ca bd 51 b9 0e 3f
       0.0020961557 -0.35027564 -0.09910082 0.5575152
0001c0 f1 0c 93 3e de 7d 85 be 74 9d 40 bd d8 68 83 be
       0.2872081 -0.26072592 -0.04702516 -0.25665927
0001d0 0f d9 d0 3a eb ec d8 3e aa 59 0b be 8f 13 67 3d
       0.0015933829 0.42368254 -0.13608423 0.056415137
0001e0 e9 b2 5f b9 ef 28 81 bd e0 b9 08 3d 37 e6 e3 be
       -0.00021333586 -0.063066356 0.03338039 -0.44511577
0001f0 27 07 c8 be 1c bd 55 3e ec 1c 74 be 93 ae 9d bd
       -0.39067957 0.20872921 -0.23839158 -0.07699313
000200 38 ce c5 be fc 21 12 bf 16 70 5b 3e ae 79 bf bd
       -0.38633895 -0.57083106 0.21429476 -0.093493804
000210 68 96 eb be 54 7d e3 3e 33 1c 4f 3e 34 98 f9 3e
       -0.46013188 0.44431555 0.20225601 0.48748934
000220 e0 c6 ce 3d cf a6 47 3f ea 5c e4 3e 71 a1 d6 3e
       0.10096526 0.77988905 0.44602138 0.41920045
000230 14 88 16 3e 0a 19 13 3f ea 3e f2 3e d9 5e 9d be
       0.14700347 0.5746008 0.47313625 -0.30736426
000240 d8 65 45 3b da 88 3f 3e dc 4d 91 3d f4 9a ad 3e
       0.0030120518 0.18704548 0.070949286 0.33907282
000250 7d 6b 9d 3d 09 e0 1a be d5 83 b9 be ec c3 c9 bd
       0.076865174 -0.15124525 -0.36233392 -0.09851822
000260 62 1d 67 bf 7a 83 bb 3e 81 04 07 bc 5d a1 c5 bd
       -0.9027921 0.36623746 -0.00824082 -0.09649918
000270 cf 62 30 bc 0b 36 a4 3e 80 9c 97 bd 75 32 d9 bd
       -0.010765745 0.32072482 -0.07402897 -0.10605327
000280 30 54 48 3e 8d af f0 b9 e1 61 9b 3e d8 a7 16 bf
       0.19563365 -0.00045907163 0.30348113 -0.5884986
000290 a0 71 37 be 52 c0 94 3e e8 70 b7 3e 55 be b1 3e
       -0.17914438 0.2905298 0.35828328 0.34715524
0002a0 2d 7a 69 be a8 db b1 be a0 e4 dc 3c d6 00 42 be
       -0.22800513 -0.34737897 0.026964486 -0.18945631
0002b0 17 e3 3e bf a9 4b 05 be 5c 51 d5 be 90 21 60 be
       -0.7456526 -0.13017143 -0.41663635 -0.21887803
0002c0 80 a5 74 3e 38 97 da 3e 83 6d 84 be 0a 3b 15 3d
       0.23891258 0.42693496 -0.258648 0.036433257
0002d0 e5 46 79 be 0e a7 20 3d a8 e6 ca bd 18 c9 af be
       -0.2434345 0.039221816 -0.099072754 -0.3433311
0002e0 0b 4c 99 3e 89 7e fa bd 71 0a e2 3d b1 01 72 bd
       0.2994083 -0.12231166 0.11037148 -0.059083644
0002f0 47 4a c0 3d 9f 6a bf be 47 31 72 be f5 4c 0e bd
       0.09389167 -0.37386033 -0.2365161 -0.03474136
000300 e0 ac 76 be e0 11 32 be 47 2c b1 be ef 6a 34 be
       -0.24089384 -0.17389631 -0.34604093 -0.17618917
000310 0a 9d ee be 2a b7 a7 be c5 70 60 3d ed a2 d0 3c
       -0.46604186 -0.3275693 0.054795045 0.025468314
000320 06 9f 8f be f1 56 ae be 7e d9 48 bf c8 f9 73 3e
       -0.28051013 -0.34050706 -0.78456867 0.23825753
000330 f2 18 cb be 94 46 ed be 98 41 72 be b1 6c c6 3e
       -0.3966747 -0.4634291 -0.23657835 0.387548
000340 b2 8b 44 be 55 64 4e 3e c8 b7 14 39 e8 d4 4e be
       -0.19193915 0.20155461 0.00014182844 -0.20198405
000350 1b 55 c7 be 6f dc bf 3d 5a fd 6d bd 58 75 13 bf
       -0.38932118 0.09368216 -0.058102943 -0.5760093
000360 43 43 ba 3d b2 5b 1f bf 16 61 4d be d5 50 51 3e
       0.090948604 -0.6224929 -0.20056567 0.20440991
000370 8a be 84 3d b3 e0 0e 3d 41 df b1 3e e4 d3 2a be
       0.06481655 0.03488226 0.34740642 -0.16682392
000380 d9 69 49 3e ac 7f 53 3e 01 bf 46 be 15 a6 c1 bd
       0.19669284 0.20654172 -0.194088 -0.09455506
000390 18 22 f3 bc 66 10 28 3f 79 2f d8 bd b1 db 4f bd
       -0.029679343 0.6565002 -0.1055593 -0.050746623
0003a0 8e 93 46 3f 86 07 50 3e fb b1 5c bc 73 a4 48 3d
       0.775689 0.2031537 -0.013470168 0.048984956
0003b0 75 0c 81 3e b3 ae 1b 3d 94 3c 74 3e 84 0b 95 be
       0.25204816 0.038008403 0.23851234 -0.29110348
0003c0 dc da 82 bd 8c 07 68 3f d4 0e b2 3e 1a c6 b1 3e
       -0.063894 0.90636516 0.34776938 0.34721452
0003d0 01 65 a4 be 02 22 07 3e 89 95 16 3e 33 0d 96 bd
       -0.3210831 0.13196567 0.1470548 -0.07326736
0003e0 0c f5 c4 3d 86 23 f5 be bb db f0 bd 3a 66 17 3f
       0.096170515 -0.47878665 -0.1176066 0.5914036
0003f0 03 fb 62 3e e7 cd 68 3e 0d 7a 2e bd 24 d6 54 ba
       0.22166066 0.22734796 -0.042596865 -0.00081190676

fc1.bias f4 [32]
000000 ae 48 26 be 86 83 46 3e e7 be 55 3e 6f 14 dd bd
       -0.16238663 0.1938611 0.20873605 -0.10794913
000010 cc f0 03 be a0 09 08 3e 44 9e 09 3f 92 da e6 3e
       -0.12884825 0.13284922 0.5375712 0.4508863
000020 89 35 93 bd 6d 0b 7b bc f4 2d b7 3e 6f f4 b6 be
       -0.071879454 -0.015322548 0.35777247 -0.35733363
000030 4c ad a0 3e 55 94 92 3d 38 b5 75 3c 19 3d 47 bd
       0.31382215 0.07157198 0.014996819 -0.04864225
000040 27 a2 d4 3e 8b 99 3a 3c cd ea ad be 4f d0 d7 be
       0.41529962 0.011389147 -0.339682 -0.42151114
000050 d1 ea 4b be ef a8 d3 be 34 06 f1 3e 61 be 6e 3e
       -0.19913794 -0.41339824 0.47075045 0.23314811
000060 2c aa 4a bd a7 cf cf be a6 b3 56 3c b2 73 d5 3e
       -0.049478695 -0.40588114 0.013104355 0.4168983
000070 1f 23 fb 3c 37 d3 25 bd 3a 5c c2 3e 33 0a 97 3b
       0.030656395 -0.040484633 0.37960988 0.00460937

fc2.weight f4 [16, 32]
000000 af 1e db be 01 d0 c2 be 5f 2e b8 3e e8 5f a2 bd
       -0.42796847 -0.3804932 0.35972878 -0.07928449
000010 8a ff 09 bd 6d 34 a3 bb d0 98 c0 3b c1 29 2b 3e
       -0.033690967 -0.004980615 0.0058775917 0.16715147
000020 63 cd 74 bd f9 6e 23 3f b7 14 68 bc 6b b7 35 3f
       -0.059766185 0.63841206 -0.014165095 0.70983
000030 9f 17 0f 3e f2 41 82 be eb d0 ba 3d 30 93 34 bf
       0.13973854 -0.25440937 0.09121879 -0.7053709
000040 4a e5 c3 3e 68 50 c0 be 89 8d 5a 3e 98 ba f9 3c
       0.3826087 -0.37561345 0.21343054 0.030484483
000050 6f 2a 30 bf 90 78 aa bf 0e 19 6b 3e b3 92 43 3b
       -0.6881475 -1.3318043 0.22958776 0.0029842078
000060 18 ca ce be ed 7c 08 3f 94 a6 4f be 9b da 80 3e
       -0.4038856 0.5331562 -0.20278388 0.25166783
000070 44 a9 8c be 4b 15 77 3e bb 15 13 3f 68 96 03 3e
       -0.2747289 0.24129216 0.57455033 0.12850344
000080 cc 48 2b 3d 44 09 77 bd 28 bf 07 be a0 fc 34 bd
       0.04181747 -0.06031157 -0.13256514 -0.044186234
000090 36 2e ef bd 72 e2 b6 bd aa d9 fb bd 36 04 b0 3d
       -0.11678736 -0.0892991 -0.122973755 0.08594553
0000a0 bc a2 ce bd 78 ba 53 bd 98 14 3c 3d 68 cd d2 bd
       -0.10089633 -0.051691502 0.045918077 -0.102930844
0000b0 6e a1 04 be f8 09 8b 3d d7 33 0f be 8c 93 37 bd
       -0.12952206 0.06789011 -0.13984619 -0.044818446
0000c0 65 06 02 be 00 d1 29 be 1f eb 00 3e 72 b5 0f be
       -0.12697752 -0.16583633 0.12589692 -0.1403406
0000d0 20 9f ee bb ee 94 ea bd 80 67 a7 3c da 72 16 be
       -0.007282153 -0.11454187 0.020435095 -0.1469225
0000e0 b2 33 d1 3d 48 be bb bc a8 58 a9 bc 48 db f0 bc
       0.10214938 -0.022917882 -0.020672157 -0.029401436
0000f0 ea ce ba bd 70 b7 c2 bc 48 ca 5b 3d 82 5a d4 3d
       -0.09121497 -0.02376911 0.053659707 0.103688255
000100 d3 fd 50 3e 09 59 80 3e 09 d2 d9 be e3 47 a7 3e
       0.20409326 0.25067928 -0.42543057 0.32672033
000110 bd bc 64 be b9 f7 3f 3e 12 eb a9 be 48 4c 36 be
       -0.22337623 0.18746842 -0.33187157 -0.17802536
000120 08 23 16 3e c9 1a 80 3d da 8a ad 3d c3 68 e9 bd
       0.14661801 0.06255109 0.084737495 -0.11396935
000130 8c 2d 46 bb 1b ef e8 3e 98 8f 00 be fc ef d7 3e
       -0.003023955 0.45494923 -0.12554777 0.4217528
000140 7c 82 1d be 9f 64 6e 3e 63 a3 1c 3f a5 2c 05 3f
       -0.15381807 0.23280571 0.6118681 0.5202125
000150 5e 7e f1 3e bd 2d 1d 3f ec aa b8 3a 53 87 90 be
       0.47166723 0.61397916 0.0014089025 -0.28228244
000160 48 03 84 be 88 2b 5e 3e 31 47 90 bd 2d 2c 53 bc
       -0.25783753 0.21696293 -0.07044829 -0.01288895
000170 9c 90 90 3e 43 ed 82 be b8 ea d0 be da 16 8e be
       0.28235328 -0.2557164 -0.40804076 -0.2775181
000180 85 1d 19 3e 5d 15 89 3d b2 a7 54 3e 04 c1 81 be
       0.14952667 0.06693528 0.20767096 -0.25342572
000190 db d2 81 be ed 82 79 3e 2e 1f 8c 3e 70 05 c0 be
       -0.25356182 0.2436635 0.27367538 -0.37504148
0001a0 17 53 69 3f 73 2b 06 3d 12 f3 7e 3e 59 86 ae be
       0.9114241 0.03275628 0.24897411 -0.34086874
0001b0 70 e7 f8 bd 3e 45 46 3f cb 55 8f be 11 8b 33 3e
       -0.12153518 0.77449405 -0.27995142 0.17533518
0001c0 5e e5 71 3e 61 ba 70 3e 12 60 16 bf ce 41 76 be
       0.23622653 0.23508598 -0.5874034 -0.2404854
0001d0 39 90 0f 3d 86 ff 0b bf 38 a3 2c bf 27 b8 7b bf
       0.03504965 -0.5468677 -0.6743655 -0.9832787
0001e0 8e 0f 11 3f 68 34 7d be 27 76 12 3f 7c d1 99 3d
       0.5666436 -0.24727023 0.57211536 0.07510659
0001f0 55 fb 05 3f 70 33 8d bf 72 36 f6 3d 07 0f 99 be
       0.5233663 -1.1031322 0.12022103 -0.29894277
000200 60 60 80 3e a9 9f a2 3e 42 8d 02 bf 07 ef ea 3e
       0.25073528 0.31762436 -0.5099679 0.45885488
000210 b5 ca 0e be 04 d7 77 3e d5 76 5e be af 4b 0a be
       -0.13944514 0.24203116 -0.21725018 -0.13505433
000220 ef f1 ec bc d9 10 0a be 02 c7 19 be d4 1c 34 bf
       -0.028923957 -0.1348299 -0.15017322 -0.7035649
000230 29 3d 9f bc db 67 c6 3d 85 99 1b 3e db 2b 87 3e
       -0.019438343 0.096877776 0.15195282 0.26400647
000240 01 84 a9 be ff b3 27 3e b7 a5 cc 3d 7b e2 a9 3e
       -0.33108523 0.16377257 0.09992545 0.33180603
000250 7d 21 d2 3e ab bd 1a 3f 03 71 0b 3d 85 e6 47 3d
       0.41041175 0.6044566 0.034043323 0.048803825
000260 31 6d 3a 3d ce cb 10 bf b4 62 78 3d 36 fd 13 be
       0.04551429 -0.5656098 0.060641006 -0.14452061
000270 0a a4 8d 3e f2 f9 e2 3d a1 80 54 be 4f f4 99 3e
       0.27664214 0.110828295 -0.20752193 0.30069205
000280 e1 a0 0c 3e a0 c9 a2 3e 9c 35 4e bd 88 82 0d be
       0.13733245 0.31794453 -0.050344095 -0.13819325
000290 b8 6a 00 3e 1b 92 1b 3e d0 89 8d 3e 47 e4 d6 bd
       0.1254071 0.15192454 0.27644205 -0.10492759
0002a0 f1 4a df 3e 36 25 24 be b7 0f 54 3e 0d 48 77 bd
       0.43611863 -0.1602982 0.2070912 -0.060371447
0002b0 a2 bc 87 3b 84 1a d7 3e 12 50 29 3e f5 2f 06 be
       0.00414236 0.42012417 0.1653445 -0.13104232
0002c0 cd 06 ec 3e 57 a6 23 3e 5a 05 20 bf 40 b0 bd be
       0.4609894 0.15981422 -0.62508166 -0.3704853
0002d0 21 7a d9 bd 29 d7 2e bf 44 ad 33 be 00 89 3a be
       -0.10618997 -0.6829706 -0.17546564 -0.18216324
0002e0 b3 ad 94 3f 2c 5c 9d be b9 61 89 3f b4 80 15 bd
       1.1615509 -0.30734384 1.0732948 -0.036499694
0002f0 cc d7 3d 3f 31 23 2b be d2 13 6f 3e 88 87 e8 3c
       0.74157405 -0.16712643 0.23347405 0.028384939
000300 b7 38 cd 3c e4 d8 6f 3d c8 4e 9c 3c 21 0b 88 bd
       0.025051458 0.058556452 0.019080535 -0.06642748
000310 06 83 a2 bd f0 42 1a 3e c4 4c 30 be c1 08 85 bd
       -0.07935147 0.15064597 -0.17216784 -0.0649581
000320 f6 c5 b7 3d 50 0d 42 3b aa 2c 09 be 51 40 bc 3d
       0.08973305 0.0029609986 -0.13395944 0.09191955
000330 97 ff 30 be a8 19 d3 3c 53 4f 37 be bb 47 ff 3b
       -0.17285 0.02576907 -0.17901354 0.0077905334
000340 ea 5e e4 3d 21 1d 08 3e 24 ef 8a bd 3f eb b4 bd
       0.11150916 0.13292362 -0.06783894 -0.08833932
000350 47 bc 8e bc 7f ea c4 bd c6 94 2f be 6a 84 00 be
       -0.017423762 -0.09615039 -0.17146596 -0.12550512
000360 77 41 b0 3d a3 db 2b 3e 0d 51 34 bd 64 6a db bd
       0.086062364 0.16783004 -0.04402261 -0.10713652
000370 b5 0f 08 3e 00 14 45 3c d9 df 2a be fa 0d 19 bc
       0.13287242 0.012028694 -0.16686954 -0.009341711
000380 d1 fa 71 bd 66 43 9a 3d 69 63 eb 3e fd b3 94 be
       -0.059077088 0.075323865 0.4597428 -0.2904357
000390 74 ae 0c 3e 61 4e 97 3c 86 3b e3 3e ae 28 8e 3e
       0.13738424 0.018469991 0.4438135 0.2776541
0003a0 4e 07 33 3d cd 1b 02 3f 93 df 9e 3e 0f 5a 2c 3f
       0.04370814 0.5082367 0.3102995 0.6732492
0003b0 b1 b4 91 3e b1 06 54 be ce 89 4d 3e 0f 61 f1 be
       0.2845817 -0.20705678 0.200721 -0.47144362
0003c0 ed a2 24 3f 64 61 18 be 5e 0d eb 3d c4 f6 26 3d
       0.64311105 -0.14880902 0.11477159 0.040762678
0003d0 08 3e a2 be 73 fb 34 bf fe 64 61 3e a8 f9 bf 3d
       -0.3168795 -0.7069618 0.22011182 0.0937379
0003e0 c3 4b 83 bc 62 2b 4d 3f 81 1e c0 3e e2 6b e9 3e
       -0.016027337 0.8014432 0.37523273 0.4559012
0003f0 23 ff 9e be 0b ff 8b 3e 21 ca 1e 3f 38 ef 4d 3d
       -0.3105403 0.2734302 0.62027174 0.050276965

fc2.bias f4 [16]
000000 29 66 af 3e 5f fa 26 be 41 a3 86 bc 36 4e b1 3b
       0.3425763 -0.16306446 -0.016435267 0.005410935
000010 0b 85 bb 3d f0 5a 94 3e 7e 2f d3 3b b4 e5 49 3e
       0.09156235 0.2897563 0.0064448705 0.19716531
000020 a5 b6 33 be 52 c3 01 3e 6b 7e 90 3e 7b 3c c9 3d
       -0.17550142 0.12672165 0.2822145 0.09825989
000030 6d b1 19 be 34 63 c2 3d f9 41 cd bd 26 0e 7a 3e
       -0.15009089 0.09491578 -0.10022349 0.2441946

fc3.weight f4 [8, 16]
000000 48 72 f4 bd dc fa 51 3e 20 ff a8 bc 36 10 67 be
       -0.1193586 0.20505852 -0.020629466 -0.22564778
000010 90 47 25 3d 00 93 ab 3b 2c 17 b6 3d a0 33 28 be
       0.04035145 0.0052360296 0.088911384 -0.16425943
000020 9c 0f 14 be 84 5c 29 3e e8 3a 68 be 20 10 39 be
       -0.1445908 0.16539198 -0.22678721 -0.18072557
000030 2c 87 ec bd ac 87 05 be a4 a9 19 be f8 50 7d be
       -0.115492195 -0.13040036 -0.15006119 -0.24737918
000040 a7 00 a6 bf 00 36 c1 bb 16 82 a3 be ff 77 6c 3f
       -1.2968949 -0.00589633 -0.31935185 0.923706
000050 95 99 93 be 21 9c 54 3f 2d 2e 0b 3c f4 71 0e 3e
       -0.2882811 0.83050734 0.008494896 0.13910657
000060 1d db 8e 3e 63 a6 22 3f 5e a3 31 3f 0e 5b 56 3f
       0.27901545 0.63535136 0.69389904 0.8373269
000070 11 d8 1b bf d2 c3 a1 bf 8b 28 8d 3f 06 e1 a6 bf
       -0.60876566 -1.2637885 1.1027998 -1.3037422
000080 41 97 79 bf 80 fc 93 3b 47 5b 20 be 15 dd 68 3f
       -0.9749642 0.0045161843 -0.1565982 0.90962344
000090 fb d4 8d be 03 d9 1a 3f f0 39 9f 3c d1 8f c2 3e
       -0.27701554 0.60487384 0.019436806 0.38000348
0000a0 08 f2 b4 3e 4c 5b 28 3f 5e b4 2e 3f ee 1d 62 3f
       0.35340905 0.6576431 0.6824397 0.8832692
0000b0 51 80 3d bf ef 35 a5 bf 09 1d 3d 3f ba 2e 97 bf
       -0.7402392 -1.2907084 0.7387243 -1.1811135
0000c0 1a 3e 8b 3f c0 26 f0 bb 0c 32 50 bf b3 b5 bd be
       1.0878327 -0.007328838 -0.81326365 -0.37052688
0000d0 b3 6c 43 bf ea f3 a8 bd d2 77 2e 3e 3b 4b 33 3f
       -0.76337737 -0.08249648 0.17037895 0.7003667
0000e0 e8 8d 2e bf 59 12 bf be 1e a6 a2 3e 15 eb 92 be
       -0.6818528 -0.37318686 0.31767362 -0.28694978
0000f0 34 48 51 3f f1 82 a8 3f d5 08 04 bf 3e fa a3 3f
       0.817508 1.316496 -0.51575977 1.2810743
000100 7f 6e 61 3f ec 67 b9 bd 1a 90 37 bf 44 fa 48 bd
       0.8805923 -0.09053025 -0.71704257 -0.049066797
000110 0b 8e 3e bf de 86 c5 3d 8c cf fe 3d 82 60 cd 3e
       -0.7443549 0.096448645 0.1244193 0.40112692
000120 4c 68 7f be 61 73 cf be d1 14 31 3e 73 8e d2 be
       -0.2494213 -0.40517715 0.17293097 -0.41124305
000130 00 74 49 3f 57 d1 c3 3f b0 e8 dc be 1a 02 ad 3f
       0.78692627 1.529826 -0.43146276 1.3516266
000140 2a 81 37 bf 90 3b cd 3d ed fa 8e be 53 a5 0a 3e
       -0.71681464 0.10021126 -0.27925816 0.13539629
000150 35 ca ee bd 78 3a 1e 3f 42 e5 7a be 2a 83 c9 3e
       -0.11659662 0.61807966 -0.24501517 0.39357883
000160 e4 56 08 3f bf e2 e1 3e e2 ff 8a 3e e7 ac 1f 3f
       0.53257585 0.44118306 0.27148348 0.62373203
000170 84 ba 2f bf bc 3d 8b bf eb b4 50 3f 24 f4 82 bf
       -0.68643975 -1.0878215 0.8152606 -1.0230756
000180 ed 81 9c 3f 90 24 aa 3d c9 cf 2a bf 93 36 d0 be
       1.222715 0.08307755 -0.66723305 -0.40666637
000190 bc 80 4a bf a0 de 32 bc aa 67 48 3e 7d 26 1b 3f
       -0.79102683 -0.010917336 0.19570795 0.60605603
0001a0 62 4a 18 bf 36 6c ff be 6f 8f 6c 3e 58 97 e1 be
       -0.594885 -0.49887246 0.2310159 -0.4406078
0001b0 86 07 2c 3f 01 a8 b4 3f 8d 00 dd be 56 0f 80 3f
       0.6719898 1.4113771 -0.43164483 1.000468
0001c0 f4 a0 97 3f 4c b2 0e be da 60 30 bf 47 27 ce be
       1.1845994 -0.13935202 -0.68897784 -0.4026434
0001d0 01 2d 2d bf 53 92 12 bc 0c c6 2a be ac 67 24 3f
       -0.67646796 -0.008946019 -0.16677111 0.6422069
0001e0 27 59 ec be 9a be 0f bf e2 10 fc 3d de e7 d6 be
       -0.46161768 -0.5615021 0.12307908 -0.41973776
0001f0 e9 98 10 3f 1b 4f 91 3f 5f d0 ec be ca c6 b6 3f
       0.5648332 1.1352266 -0.46252725 1.4279416

fc3.bias f4 [8]
000000 f8 77 32 bd 5f 2e 8b 3d 0c a6 23 be 66 9e 5d 3e
       -0.043571442 0.06795954 -0.1598131 0.21642455
000010 44 20 6d 3e 64 cb 27 bd 53 02 b9 3e 08 cc ce 3e
       0.2315684 -0.040965453 0.36134586 0.40390038

output.weight f4 [1, 8]
000000 c4 a5 99 3d 83 e6 9d 3f dd 3c c2 3f af 29 bb bf
       0.075023204 1.2335972 1.5174824 -1.4622096
000010 29 40 bd bf 27 42 b3 3f 64 3d bb bf 67 cf d0 bf
       -1.4785205 1.4004563 -1.462811 -1.6313294
