model.pth (torch, 53788 bytes, 9 tensors)

fc1.weight f4 [128, 13]
000000 ad d6 62 be df 0f 67 3e 10 8e 2f be a1 9d f5 bd
       -0.22152205 0.22564648 -0.17144036 -0.11992956
000010 04 84 88 3e 83 37 f5 bd 26 ba 00 be cd 9c d4 3e
       0.2666322 -0.11973479 -0.1257101 0.4152588
000020 8d 86 1f 3e af 20 bf be 59 00 54 3e 5b 6c de bd
       0.15578671 -0.37329623 0.20703258 -0.10860511
000030 3a 74 ff bd b6 6a 51 be 65 8d 3a 3e 4e c2 29 3e
       -0.1247334 -0.20450863 0.18218 0.16578028
000040 e1 2b 38 3e c3 07 84 3e 5e f2 c1 bd ce 1b bf 3d
       0.17985488 0.25787172 -0.09470056 0.09331475
000050 47 cf 43 be 49 72 95 be f8 9f 21 3e da 4d 9c 3e
       -0.19122039 -0.29188755 0.1578368 0.30528146
000060 e8 cf 24 be dc 40 08 be 62 0a 03 3e 34 65 11 be
       -0.16094935 -0.13305992 0.1279693 -0.14198762
000070 cc ce b9 be ea 0a 04 3e df 0e 8d 3e e6 75 59 be
       -0.36290586 0.12894788 0.27550408 -0.21236381
000080 19 1e 3c 3e 71 b4 31 3e 4d d3 a1 3d 81 c9 02 3e
       0.18370856 0.17353989 0.079016306 0.1277218
000090 69 1f 32 3e 12 39 d2 be 60 70 a5 3b a9 3f 7d be
       0.17394795 -0.41059166 0.0050487965 -0.24731316
0000a0 89 81 e6 bd 2e 9b 8a 3e 33 10 36 be 64 b5 e3 bd
       -0.112551756 0.27071518 -0.17779617 -0.11118582
0000b0 9a f9 7e be 9f 03 9c 3e c7 67 ec bb f4 c7 67 3e
       -0.24899903 0.30471513 -0.0072145197 0.2263487
0000c0 32 2e 4c be be ed 8d be a1 34 af 3e 4a cb a6 bd
       -0.19939497 -0.27720445 0.3421984 -0.08144243
0000d0 4d d2 db 3d c9 9f 7d be 7e c5 a9 3e 10 bf 2c bd
       0.10733471 -0.24767984 0.33158487 -0.0421744
0000e0 6f c7 4d bd 41 0e 66 bd 57 3b 59 be e9 9b 8a 3d
       -0.050239023 -0.056165937 -0.21214043 0.06768019
0000f0 e8 cb 8b 3e cc df 34 3d 2c ef 3c 3e f1 ea c7 3e
       0.27304006 0.04415874 0.18450612 0.39046434
000100 35 20 3c be f2 e3 a5 bd a0 72 63 bd db 3d 82 be
       -0.18371661 -0.08100118 -0.055529237 -0.25437817
000110 75 8d 9d 3e ea 03 d2 bd 7d aa 08 be 26 30 25 3e
       0.30771986 -0.10254653 -0.13346286 0.16131648
000120 a7 f6 9c 3d 2c f9 ba 3b 5b e2 90 3e c7 0a c8 3d
       0.07664233 0.005705973 0.28297696 0.097676806
000130 ad 4b cc be 70 18 3e be c3 80 27 3e 52 53 59 be
       -0.39901486 -0.1856401 0.16357712 -0.2122319
000140 65 a3 c6 bd e5 0e 80 3e eb cc a9 bc 9c 7f 87 3e
       -0.09699134 0.25011364 -0.020727595 0.26464546
000150 d0 da 2b 3e 62 4a 9c 3d a3 7c 2e be 72 8a 59 be
       0.16782689 0.07631375 -0.17039733 -0.21244219
000160 d4 fd 16 be 32 0f 36 be b8 bf 62 be 46 74 9a 3e
       -0.14745265 -0.17779234 -0.22143447 0.30166835
000170 aa 2d af 3e 8f 58 5b bd 52 a5 aa 3e dc e9 b7 3e
       0.34214526 -0.053551253 0.33329254 0.35920608
000180 a7 00 46 3e 28 d1 cb 3e ab a1 a9 be 44 93 7f 3e
       0.19336186 0.3980801 -0.33131155 0.24958521
000190 70 80 9f 3c 8d 42 48 3e 64 4c 89 be 38 f8 c8 3e
       0.019470423 0.19556637 -0.26816094 0.39251876
0001a0 95 d6 41 be fb 38 47 3d e9 3a ac 3e 48 87 d9 bd
       -0.18929513 0.048638325 0.33638695 -0.10621506
0001b0 20 71 0e 3d 11 52 6b 3e 17 61 0b 3d 0c 3c a7 be
       0.034775853 0.22980525 0.03402814 -0.32663
0001c0 86 d9 96 be a2 e5 9b 3e d1 4d 93 3c c4 f4 8f be
       -0.29462832 0.30448633 0.017981442 -0.2811643
0001d0 81 96 8c 3d d1 23 0d 3e f4 ee 01 3e 3d d3 66 3e
       0.06864644 0.13783194 0.1268881 0.22541519
0001e0 18 f6 10 3e db 54 e5 bd 6d dd 80 3e 75 82 77 be
       0.14156377 -0.111978255 0.25168934 -0.24170859
0001f0 f5 61 aa 3d ab b7 e9 bd bc 4a 5f 3d 17 64 67 3e
       0.08319465 -0.11411985 0.05451463 0.22596775
000200 1d 91 77 3d cb 3b b5 3e ad 5d b1 be cc 41 a1 bd
       0.060441125 0.3539718 -0.3464178 -0.07873878
000210 e1 0b cf bd 4d 96 47 be 62 c7 82 3e 21 18 8c 3e
       -0.101096876 -0.19490929 0.25542742 0.2736216
000220 ca 9f 70 3e d8 b9 a8 be 28 47 3d 3e 25 da a0 3e
       0.23498455 -0.32954288 0.18484175 0.3141643
000230 b5 33 ed 3d 29 dc cc 3d af 5f ac bd 01 30 74 3e
       0.11582128 0.1000293 -0.08416688 0.23846437
000240 7d 43 96 be f3 d7 c4 3e 07 d1 40 3e e3 19 71 be
       -0.29348364 0.38446006 0.18829738 -0.23545031
000250 82 fa e2 bd c7 4a 1e 3e c6 d0 3d be 67 eb 0c be
       -0.11082937 0.15458213 -0.18536672 -0.13761674
000260 39 e1 0e 3d 19 89 51 3e 54 e0 e8 3c 0b 3c 50 3e
       0.034882758 0.20462455 0.02842728 0.20335405
000270 38 be 6c bd 7a 07 ee bd 6e 6e b6 3b 86 19 13 bd
       -0.057798594 -0.1162252 0.0055673635 -0.035913013
000280 1a b8 6c be 1f c0 d0 3e 39 eb fc bc 91 67 49 bd
       -0.23117104 0.40771577 -0.030873882 -0.049171034
000290 eb eb 1e be ed 7e 41 be 50 86 4b be a9 5e 39 3e
       -0.15519683 -0.18896075 -0.19875455 0.18102516
0002a0 ad 91 06 bc 6b d3 e3 bd ce d2 14 be fd b3 9b 3e
       -0.008213443 -0.11124309 -0.1453354 0.30410758
0002b0 64 c1 6e 3e 31 e5 af 3e c3 d6 8d bd de 67 4e be
       0.2331596 0.34354547 -0.06925728 -0.2015681
0002c0 a5 39 2b 3e b6 20 5a 3e 61 3a 97 be 12 38 6b bb
       0.16721208 0.2130154 -0.29536727 -0.0035891575
0002d0 46 98 61 3e 3b d8 8c 3d 95 91 51 bd 3a 1f c3 3e
       0.22030744 0.0687718 -0.05116423 0.3810976
0002e0 44 ad 4c be fc 22 a0 bc b6 cd 7d bd 59 e0 b0 3e
       -0.1998797 -0.019547932 -0.06196376 0.34546164
0002f0 37 c5 47 be 16 bf fb 3d 06 5b a8 3e a7 7d 96 3d
       -0.19508825 0.12292306 0.32881945 0.07348185
000300 a3 a9 a8 3c 57 cf aa 3d d1 39 44 be 94 02 d8 3d
       0.020588702 0.08340328 -0.1916268 0.10547367
000310 63 a8 fe bd 36 87 57 be 12 16 bb bd 57 a3 91 3c
       -0.12434461 -0.21047673 -0.09135069 0.017778082
000320 a0 fd 45 3e 97 4b 33 3e 27 98 81 3e 34 81 82 be
       0.19335032 0.17509304 0.25311396 -0.254892
000330 be 65 a4 be 82 7e 6d bc 13 b1 4b 3e 33 f0 29 be
       -0.32108873 -0.014495494 0.19891767 -0.16595535
000340 a4 0e 8f bd a4 74 7b 3e 38 73 fa 3d d6 00 b4 be
       -0.06985214 0.24556214 0.122290075 -0.35156888
000350 9a f1 e2 bd d6 86 a4 3e eb fc 0a 3e 42 88 d8 3d
       -0.11081238 0.32134122 0.13573043 0.10572864
000360 65 75 e8 be 77 ea 5c be 72 67 0d 3e 1f 38 9d 3c
       -0.45402065 -0.21573816 0.13808993 0.0191918
000370 54 48 31 be 98 b2 b4 bd 07 dd c6 be 4b f5 66 3e
       -0.17312747 -0.088231266 -0.38840505 0.2255451
000380 54 2a dd bd 36 58 87 3e e6 b6 68 3e 9c ea a8 be
       -0.10799089 0.26434487 0.2272602 -0.32991493
000390 4e 36 5b 3e d3 e3 43 3d 6a 64 13 3e 5c 4a d6 3d
       0.21407434 0.047824692 0.14393774 0.10463402
0003a0 16 de 05 3d 97 b0 f2 3d d8 6c 25 be 29 4b 0c bc
       0.0326825 0.11850088 -0.16154802 -0.008562841
0003b0 7f 60 1f 3e 8f 62 ac 3e a7 d3 20 be 47 21 bc 3d
       0.15564154 0.33668944 -0.15705739 0.09186035
0003c0 25 b1 45 3e 02 5a 3b be 30 6b 50 be 18 b3 dd 3e
       0.19305857 -0.18296054 -0.20353389 0.433007
0003d0 42 88 3b bd c1 a0 20 be 57 84 8a 3d a5 6c 45 3e
       -0.045784242 -0.15686323 0.06763523 0.19279726
0003e0 8a 98 86 3d 91 be ba 3e 5e f9 c0 3c f5 26 a3 bd
       0.06572063 0.36473516 0.023556408 -0.07966415
0003f0 9d 62 a1 3b 4d c1 21 be 08 a8 e5 3d 8d e4 c7 3d
       0.0049250857 -0.15796395 0.1121369 0.097603895

fc1.bias f4 [128]
000000 f3 d6 3a 3e 82 19 05 be b7 48 fc bd f9 56 3c be
       0.18246059 -0.12998012 -0.12318557 -0.18392552
000010 a4 f5 cc bd f3 36 72 be 2c 14 ff bd 6d 05 37 be
       -0.1000779 -0.23653774 -0.12455019 -0.17873164
000020 75 4d a5 3c 3f 89 cc be e8 24 3e 3e e2 67 db 3d
       0.020178536 -0.3994846 0.18568766 0.107131734
000030 c3 7c ab bc 18 e8 19 be 07 70 37 3e 9a fb 88 3d
       -0.020933514 -0.15029943 0.17913829 0.06688614
000040 3a f1 d0 bd 7c 70 48 3e f1 7a 5c 3e 1a 3b 49 be
       -0.1020226 0.1957416 0.21531273 -0.19651452
000050 bb 9b 86 3d 80 3c eb be 2e 6d 59 3e f0 a0 e3 39
       0.06572672 -0.45944595 0.21233055 0.00043416722
000060 df 7a 47 bd a1 a2 8b be 8e 80 3f 3e 66 da d0 bc
       -0.048701163 -0.27272514 0.18701383 -0.025494765
000070 fb d9 90 be c4 56 01 3e f5 0c 0a bd fb b2 d9 bd
       -0.28291306 0.12630755 -0.033703763 -0.10629841
000080 7b c3 d1 bd a8 4d 09 be f9 78 46 bd 76 cc a4 bc
       -0.10242363 -0.1340853 -0.048455212 -0.020117026
000090 79 87 75 be ad a4 86 3c 28 69 1e 3e f3 67 04 3d
       -0.2397746 0.016435945 0.15469801 0.032325696
0000a0 95 51 9c be c6 2d 70 3e 84 ce a3 be 25 6b 6a be
       -0.30530992 0.23454961 -0.31993496 -0.22892435
0000b0 f4 3a 42 be 8d e8 04 be 37 82 fc bd b0 2f eb 3d
       -0.18967801 -0.12979336 -0.12329524 0.11483705
0000c0 42 4c 7f be a3 e7 08 3e a5 af 98 be c7 d0 d7 3d
       -0.24931434 0.13369612 -0.29821506 0.10537868
0000d0 83 b6 d7 be 14 27 a8 bd d6 26 4b 3e e7 29 d5 3d
       -0.42131433 -0.082105786 0.19839033 0.10408383
0000e0 f7 c9 a6 bd 96 d2 c3 3d 4d 35 64 be 20 ee c9 be
       -0.081439905 0.095616505 -0.22285958 -0.39439487
0000f0 0c 6c f7 3d 8b de a0 3e 4d 39 09 bd c2 09 b3 bd
       0.12081155 0.31419787 -0.033501912 -0.087420955
000100 bf 59 15 be 15 c1 d3 3d 5f 70 06 3c fb 47 12 be
       -0.14585017 0.10339562 0.008205502 -0.14285271
000110 d7 70 de 3d 98 ea 14 3e ed ce 03 bc 95 87 4e 3e
       0.10861366 0.14542615 -0.00804494 0.20168908
000120 e7 f3 8e be d7 dc 71 be a1 96 1a bf 04 12 14 be
       -0.27920458 -0.236194 -0.6038609 -0.14459997
000130 c9 c1 4d be 07 e2 96 be c3 b6 23 bd 7c a8 82 bd
       -0.20093454 -0.2946932 -0.039969217 -0.06379792
000140 0e f1 c2 bd 47 01 a6 bd d2 82 7e 3e d9 06 fa bc
       -0.09518634 -0.081057124 0.24854591 -0.030520843
000150 37 eb e4 3d 39 fc 3b 3e fd 8b 0e bb 1f 08 21 b9
       0.11177676 0.18357934 -0.002175092 -0.00015357182
000160 a9 da 44 be 50 d2 88 be 78 de b4 be 8f 94 0c be
       -0.19224037 -0.26722956 -0.3532598 -0.13728546
000170 fb bc 02 3e a5 4c a2 be e8 78 e9 bd 8d bf d3 bd
       0.12767403 -0.316991 -0.11400014 -0.1033927
000180 8f a6 55 3e 65 52 dc 3d 5c 00 15 3e ad 1f 2f 3e
       0.20864318 0.10757903 0.14550918 0.17101927
000190 c2 85 ae be 85 fa 0d 3d 27 58 aa be 61 d6 6f 3e
       -0.34086424 0.034662742 -0.3327038 0.23421623
0001a0 10 ad 75 3c 67 3d 1f 3e 99 5f 58 3d f8 73 c5 bd
       0.014994875 0.15550767 0.052825544 -0.0964126
0001b0 95 e4 95 3b 94 7d e2 bd e0 09 7f 3e 08 8d 61 3d
       0.0045743682 -0.110591084 0.24906111 0.05506614
0001c0 51 e6 9b be 26 f9 f2 bd 0b 33 06 3e 4a c6 91 bd
       -0.30449155 -0.118639275 0.13105409 -0.07117899
0001d0 f1 a4 82 be 84 07 11 3c fe f6 19 be 75 db 20 be
       -0.25516465 0.0088518895 -0.15035626 -0.15708716
0001e0 31 b7 f6 bd 1f 72 e5 bc be 6a 06 bd 7b ba 1b be
       -0.1204666 -0.028008519 -0.03281664 -0.15207855
0001f0 b8 88 3c be b7 37 dd be 2f e6 b8 3d 74 c8 81 3e
       -0.18411529 -0.4320657 0.09028279 0.25348246

fc2.weight f4 [64, 128]
000000 9f 32 69 be f7 9b 59 3e a8 8b 01 3d 2a 05 8a bd
       -0.22773217 0.21250902 0.031627327 -0.06739266
000010 9d 4d 45 bb 38 b6 38 3e a4 4f e4 3d ac 83 26 be
       -0.0030106076 0.18038261 0.11148003 -0.16261166
000020 0e 63 cb bc 83 88 54 bc 4e c8 d4 bc 90 dc 4c 3e
       -0.024827506 -0.012972 -0.025974419 0.20006013
000030 91 b5 e5 be d1 fa 2e bd 0e 95 70 be 67 a9 db be
       -0.44865087 -0.042719666 -0.2349436 -0.4290268
000040 ca 31 cf bd 75 f2 df 3d b5 bc 47 3e 7e 47 40 3e
       -0.101169184 0.10934917 0.1950558 0.18777272
000050 f0 7b 3f 3d 62 47 1b bd 2e 42 54 be 4e 20 49 3d
       0.046749055 -0.037909873 -0.2072837 0.049103074
000060 2e b1 ac 3d 28 fa ba 3c 6a 48 03 bd 2f b2 57 3c
       0.08432232 0.022824362 -0.03205148 0.013165041
000070 09 dd a0 bd 01 87 40 be c0 94 19 3c a6 a7 22 3d
       -0.07854659 -0.188015 0.009373844 0.039710663
000080 af 81 df bd 86 aa 8c bd 1d 97 0b bf 61 7c 7f 3d
       -0.10913407 -0.06868462 -0.54527456 0.062374476
000090 87 48 d9 3d 7b a1 de bc 5f 18 5e 3e e6 24 f2 bd
       0.106095366 -0.02717661 0.21688984 -0.11823444
0000a0 2c 22 ce 3c 62 44 54 be f6 8e d3 3c a9 16 59 bc
       0.025162779 -0.20729211 0.025825005 -0.0132500315
0000b0 8a 6e 60 bf bf a1 1f 3d 26 ba a6 bc ed f4 aa bd
       -0.8766867 0.038972612 -0.020352434 -0.08347497
0000c0 8f 34 5b ba b9 7e 82 3d 63 0c c1 be 3f 01 17 bc
       -0.0008362019 0.06371827 -0.37704763 -0.009216606
0000d0 b3 9f c4 bd ad 2b 9c 3b ff d5 2e be b1 1a 80 3e
       -0.09600773 0.0047659487 -0.1707382 0.25020364
0000e0 39 03 7d bf e4 61 47 3e 06 02 f1 bd 05 85 9a bc
       -0.9883304 0.19470936 -0.11767964 -0.018862257
0000f0 5f e2 18 be a9 6f c6 bd 63 73 07 be 52 3e b5 3c
       -0.14930104 -0.09689266 -0.1322761 0.022124443
000100 81 e7 1d 3f 9e 63 a2 3d ed 49 2b 3e 43 73 80 3e
       0.6168137 0.07929157 0.16727419 0.25087938
000110 7d dc 1b be b7 c6 6a 3e 19 53 af bd fe 22 ca bd
       -0.15220828 0.22927366 -0.085607715 -0.098699555
000120 ad 69 71 3e bd f3 2c 3d d9 bd 2a 3e 2b b6 af bb
       0.23575468 0.042224634 0.16673984 -0.0053622923
000130 c0 cc 33 3e 43 67 67 bf 89 b6 3b 3d 19 63 23 3d
       0.17558575 -0.9039194 0.045828376 0.03988943
000140 ae af 43 be a2 94 19 3e b8 33 6b 3d 10 dd cb 3b
       -0.19109985 0.14998105 0.05742237 0.006221421
000150 20 18 cc bd a1 19 b5 bd 95 ef a5 bd 3f ea aa 3d
       -0.09965539 -0.08842779 -0.08102337 0.0834546
000160 38 cb 47 bf 87 1a 7a 3d b3 e1 00 be 9a e9 2a 3e
       -0.7804446 0.061060455 -0.12586097 0.16690674
000170 55 8c 0b 3d 86 12 49 3e 6c e9 a5 bd 13 c2 1e 3c
       0.034069378 0.19635972 -0.08101162 0.009689826
000180 3c 7c 85 3b 25 65 6c 3d 18 c4 27 3d 4e 8e de 38
       0.004073648 0.057713646 0.040958494 0.00010612291
000190 18 65 ab bd a9 95 a5 bd 59 26 37 3e 53 8e 2d 3e
       -0.083688915 -0.08085186 0.17885722 0.16948824
0001a0 9d 3b 36 bd 64 9a a5 3c e7 f8 97 bd fd 72 e2 3d
       -0.044490445 0.02021522 -0.07420521 0.110570885
0001b0 ca 4c 15 bd 01 bf 8f 3e 8d 81 07 3e 19 21 9c bc
       -0.036450185 0.28075412 0.13233013 -0.019058751
0001c0 12 5c ef 3d 8d 2f 7e be da 40 00 3d 28 24 16 be
       0.11687483 -0.24822827 0.031311847 -0.1466223
0001d0 4e 22 65 3e d8 85 fd 3d 18 de 1d be 31 4d be be
       0.22376367 0.12379044 -0.15416753 -0.37168267
0001e0 fb 8f ce 3d 3f d5 df 3d e6 d9 76 3d 1f 06 0e be
       0.10086056 0.10929345 0.060266398 -0.13869523
0001f0 50 7d b7 3d 38 82 b6 3d f5 44 1f bf ef 14 8b bd
       0.08959448 0.08911556 -0.62214595 -0.06791102
000200 43 86 6b be 6d ee 03 be ec 34 dd 3d 2b 08 a2 3d
       -0.23000436 -0.12883921 0.1080111 0.07911714
000210 db ee d5 bb 92 cc e7 bc 70 98 47 be 1d 89 20 3e
       -0.006528718 -0.028295789 -0.19491744 0.15677305
000220 64 cd 49 3d 6e 95 15 3e 02 70 21 3b 11 6e 04 be
       0.04926814 0.14607784 0.0024633412 -0.12932612
000230 23 5c 21 3d 6b 2d 48 3c 84 9f 1d 3e 2f 71 04 3d
       0.03939451 0.01221786 0.15392882 0.032334503
000240 7d f3 06 bf 0e ad 00 be 20 82 99 3d be 8a ce be
       -0.52715284 -0.12566015 0.074955225 -0.40340227
000250 d3 77 a7 be b4 d2 e1 3d e9 25 6d 3e 0a 58 3f 3e
       -0.32708606 0.110265166 0.23158993 0.18685928
000260 89 54 7c be b0 e0 8b be e1 c7 f1 bd d9 73 a4 3d
       -0.24641623 -0.2731986 -0.11805702 0.08029909
000270 9f ea 37 bc 93 97 c5 bd 7e af 7b 3d aa ca c5 bd
       -0.011225372 -0.09648051 0.06144666 -0.09657796
000280 6a b0 f8 3d 33 95 88 be a3 95 80 3d 89 9e e1 3c
       0.12143023 -0.2667633 0.06278541 0.027541416
000290 39 1a 2b be 36 12 b2 3c f1 0a ca be e9 e4 13 be
       -0.16709222 0.0217372 -0.39461473 -0.14442791
0002a0 54 73 87 be 69 12 81 3e 18 a2 76 bd 6e 97 f3 be
       -0.26455176 0.25209358 -0.06021318 -0.4757647
0002b0 8d 55 05 3e bc e6 3b bd 2e 29 b9 3c 06 24 54 be
       0.13020916 -0.045874342 0.022602644 -0.20716867
0002c0 32 2c b0 be ae 81 c3 be e0 fc ac 3d 92 25 95 3d
       -0.34408718 -0.38184875 0.084466696 0.072825566
0002d0 a5 e3 15 be 73 f3 8c bc 6d 02 db bc 4c 92 b6 bd
       -0.14637621 -0.01720593 -0.026734555 -0.08914623
0002e0 b7 25 6b bc 3e b7 c0 bd 20 2a 83 3e 12 fb aa be
       -0.014352254 -0.09409951 0.25618076 -0.33394676
0002f0 ac 48 b9 3c 15 ea fc 3d 4b 57 ae 3d 73 b5 9a be
       0.02261766 0.12349335 0.085127436 -0.3021656
000300 85 79 1b 3d 49 e7 81 bc 20 06 40 3e 98 1c 8e be
       0.037957687 -0.015857356 0.18752337 -0.2775619
000310 0b 41 7a 3d 23 fd 8b 3e df 78 5d 3d 35 28 03 3c
       0.061097186 0.27341565 0.05407035 0.008005192
000320 42 62 06 be 7f b4 8a bd 51 58 4a be 46 ef fb bd
       -0.1312342 -0.06772708 -0.19760253 -0.12301497
000330 dc 13 6e be 1d 90 2f 3d 16 e3 54 be 84 94 50 bd
       -0.23249763 0.042862047 -0.20789751 -0.050922886
000340 4c c3 c9 ba 76 df c2 be 47 33 02 bd 71 c6 e5 bd
       -0.0015393286 -0.38061112 -0.031787183 -0.1121949
000350 91 50 04 be 1b 7f 19 3e 22 57 d6 3d c6 3d 1f bd
       -0.12921359 0.14989893 0.10465838 -0.03887727
000360 51 d7 92 3c ba 4e 06 bf ec b8 05 3d bf c9 01 be
       0.017924936 -0.5246388 0.03264706 -0.12674616
000370 0d db 97 3d f2 54 8d bb d3 00 02 3e 12 5d 22 3d
       0.074148275 -0.004313105 0.12695627 0.03963954
000380 b2 c1 74 3e 8b 15 5d 3c 87 35 5c 3c 9f ab cb 3d
       0.23902014 0.013493906 0.013440496 0.099448435
000390 50 c9 ab be af 68 77 be ed 99 1e 3d 1b 43 96 bc
       -0.33552027 -0.24161027 0.038721014 -0.018342545
0003a0 3e 3a 40 3e 91 37 c8 3d ea ce e8 be cf a7 45 be
       0.18772218 0.097762235 -0.45470363 -0.19302295
0003b0 38 7c 2b 3c d7 51 e4 3c 25 e4 4e 3d e2 f2 67 3d
       0.010466628 0.027871056 0.050510544 0.056628115
0003c0 5e d6 83 be bb 92 68 be 18 33 10 3e f3 54 c1 3d
       -0.25749487 -0.22712223 0.1408199 0.09440031
0003d0 2c c6 e4 be 6a 8e 95 be 6d a8 d1 3d c8 af b2 bd
       -0.44682443 -0.29210216 0.10237203 -0.08724934
0003e0 11 b7 25 3e 3a 67 b5 bc 61 cc 82 bd 93 8f 94 bd
       0.16183116 -0.022143949 -0.063866384 -0.07253947
0003f0 f9 0e b4 be bb 1b 0a 3d 10 21 dc bd e7 78 37 3e
       -0.35167673 0.033717852 -0.10748494 0.17917214

fc2.bias f4 [64]
000000 23 aa 4f bd 6c 1c 81 3d 1e 53 fd bd fa 67 fa 3c
       -0.050699364 0.06304249 -0.12369369 0.030567158
000010 8e 51 a1 3d 14 79 8a 3d 99 2e 00 be 5b ab 5e bd
       0.078768834 0.06761375 -0.12517776 -0.054362636
000020 35 80 8f bd ea 21 9a bc f3 dc 01 3d 2a b8 3c bc
       -0.070068754 -0.018815 0.031704854 -0.0115185175
000030 3c a3 89 3d d9 94 83 3d 7a 90 e2 3d 4e 96 0a bc
       0.067205876 0.06424875 0.11062713 -0.008458687
000040 26 9b c0 3d a0 9f 43 bd a0 f4 fd bb e1 3e 38 3d
       0.09404592 -0.047759652 -0.007750109 0.04498184
000050 e3 4e fe 3c b1 4c f5 bd 99 38 af be 4b 1f 75 3d
       0.031043475 -0.11977518 -0.34222868 0.059844296
000060 7d 09 e0 3c 7f 88 01 bc c4 ba 42 3c 29 29 99 3d
       0.027348274 -0.007906078 0.011885349 0.07478554
000070 e4 37 21 3e 01 7a 8e 3d bd 61 0a 3e 53 15 57 3d
       0.15743977 0.06956864 0.13513847 0.05251057
000080 d1 53 1a be 23 71 ba bd 3b 68 3b 3e cb 09 54 3d
       -0.15071036 -0.0910361 0.1830148 0.05176715
000090 55 39 0f 3e d4 52 21 bc c9 47 2e bd 0c ec c1 bd
       0.13986714 -0.009846408 -0.04254893 -0.094688505
0000a0 36 60 ee bb ba 22 2e be 8b 17 1d 3e cd b8 f0 bb
       -0.007274653 -0.17005435 0.15341012 -0.0073462487
0000b0 cb 24 ba bb 5d 5e a7 3b da 36 76 be 02 fd 69 3d
       -0.0056806556 0.0051076845 -0.24044362 0.057126053
0000c0 34 f5 b3 bd cf 5a 11 3d e3 d9 be 3d 17 fb a3 3c
       -0.08787003 0.035486992 0.09318902 0.02001719
0000d0 79 7f f3 3d b6 2d f6 bc 40 3b 0c bc 68 04 83 bd
       0.11889548 -0.030051094 -0.008559048 -0.06397325
0000e0 f0 d7 67 3d c3 87 33 bd cb da 39 bc ef f8 7a 3d
       0.05660242 -0.043830644 -0.011343668 0.061272558
0000f0 74 a8 39 bc 08 9d b6 bc 22 c2 85 bd 2c 2f 9c 3d
       -0.011331666 -0.022291675 -0.065311685 0.07626185

fc3.weight f4 [32, 64]
000000 38 e7 2d bf 58 77 1d 3f e6 a1 17 bd aa 38 a5 3d
       -0.67930937 0.6151023 -0.037019633 0.080674484
000010 4f 9a 16 be f8 47 0d be c0 88 2e be 8e 2b 38 3b
       -0.14707302 -0.13796985 -0.17044353 0.0028102132
000020 6f 42 57 3d e2 bb d0 3d 79 da 65 bd 37 0d 3a 3c
       0.05255359 0.10192086 -0.056116555 0.01135569
000030 de 4d b6 be cc a7 13 3e f2 89 20 be e1 5d 47 3c
       -0.35606283 0.14419478 -0.15677622 0.012168379
000040 1e c8 85 be a5 c5 a7 3e 02 f7 37 bc 80 37 32 3d
       -0.2612924 0.32767978 -0.011228325 0.04350996
000050 b3 49 24 be 4b 92 3b be 9c 79 27 3c 6f a0 96 be
       -0.16043739 -0.18317525 0.010221865 -0.29419276
000060 39 3b 2c 3d a3 7f d1 3d 8a 5d a2 3d c7 d5 a0 bd
       0.042048667 0.10229423 0.079279974 -0.07853275
000070 d1 82 25 3d 02 71 58 3e 95 df f2 3d 19 50 1b be
       0.04040796 0.21136859 0.11859051 -0.15167274
000080 83 d1 0f bd df 23 85 be c2 1d 7d 3e 5b af 72 3e
       -0.035111915 -0.2600393 0.24718383 0.23699705
000090 2b b1 03 3e 67 7b d0 3a dd c5 57 3e 5f 47 35 be
       0.12860553 0.0015905917 0.21071573 -0.17703007
0000a0 ee 90 3b 3c 12 27 31 3d 0a d8 ac 3d 82 45 9d 3d
       0.011448128 0.04325015 0.08439644 0.07679273
0000b0 a0 43 6c 3c 6c b6 d6 3d 69 aa d9 be f8 03 a2 3d
       0.01442042 0.10484013 -0.42512825 0.07910913
0000c0 30 dd 1c bd 14 49 d6 3d 09 ff 76 be 40 79 d5 3c
       -0.03829688 0.10463157 -0.24120726 0.026058793
0000d0 49 c9 f5 bb e2 aa 5a 3e 25 b4 cb 3e 43 0e d2 3d
       -0.0075008017 0.21354249 0.39785877 0.102566265
0000e0 30 ec ae 3e bc e5 b0 3e 03 fe 76 be 24 a4 fa bd
       0.34164572 0.34550273 -0.24120335 -0.122383386
0000f0 1c 8b 80 3d 9a 21 5e 3b 89 bc 53 be 43 17 e4 be
       0.06276533 0.003389454 -0.20677389 -0.44548997
000100 ac 06 10 bf d5 41 30 3f 56 0f 2a 3e dc 2b 7b 3e
       -0.5626018 0.6885045 0.16607413 0.2452845
000110 a6 cb 83 be d9 0c 6c be ef 37 bb 3c a7 36 ac 3b
       -0.2574131 -0.23051776 0.02285382 0.0052555385
000120 7b e0 80 3e cf f4 bb 3d 84 4e 13 3c 63 b3 36 3c
       0.25171265 0.09177553 0.008990888 0.011151168
000130 cc 08 c3 be fe 66 86 3d 07 4f e2 3d 33 50 1d 3c
       -0.3809265 0.06562613 0.110502295 0.0096016405
000140 93 39 23 be c7 55 c8 3e 8c b8 48 bc 01 7b a8 bb
       -0.15939932 0.39127943 -0.012251031 -0.0051416163
000150 86 5b a4 be 43 ab d0 be f2 15 57 3e 32 40 a0 be
       -0.32101077 -0.40755662 0.21004465 -0.31298977
000160 42 72 1a be 14 d1 3d bb b7 83 e0 3d 95 15 20 bd
       -0.15082648 -0.0028963732 0.109626226 -0.039083082
000170 4a 4a 6e bd 02 42 a1 3e 0b 5e 60 3d 25 ff 8d bc
       -0.058176316 0.31495672 0.054777186 -0.017333576
000180 ee f0 ae bd ba c8 a6 bd 7b f9 12 3e e7 10 5a 3e
       -0.085420474 -0.08143754 0.14352982 0.2129551
000190 68 e0 8d bd bc a5 bf bb 21 84 a4 3d fc b3 3f be
       -0.06927568 -0.0058486145 0.08033014 -0.18721002
0001a0 ac 21 6b 3c 63 c7 52 3e 33 1a 7c 3d 07 45 ab 3d
       0.01435129 0.20583872 0.061548423 0.08362775
0001b0 84 d2 81 3c 37 3c ba 3d bf 3d a8 be 9b 92 88 3d
       0.015847452 0.09093516 -0.3285961 0.06668588
0001c0 38 3b f4 bd f8 c1 39 3e 6d d4 2a be c6 98 89 3e
       -0.119253576 0.181404 -0.16682597 0.2687437
0001d0 6b 1f ac 3c 3b c0 aa 3e 55 52 9d 3e 5a 46 0d 3d
       0.021011075 0.33349785 0.30726877 0.03449092
0001e0 f9 60 d0 3e c4 33 c0 3e 6d 8f c3 be 12 d1 6d be
       0.40698984 0.37539494 -0.38195363 -0.23224285
0001f0 56 b2 a8 bb cf 92 11 bc f0 d0 ff bd 76 aa ec be
       -0.0051482124 -0.0088851 -0.124910235 -0.462238
000200 01 14 3d bf 46 67 16 3f 5f c7 89 3d c5 9e 59 3e
       -0.7385865 0.5875133 0.0672748 0.21251972
000210 e8 e0 ba be e7 4c 91 bd a9 39 43 bd 50 7d 46 3b
       -0.36499715 -0.07094746 -0.04766241 0.0030287094
000220 22 64 e4 3d ed c6 1d bc 72 85 03 be 34 9c 4d 3c
       0.11151911 -0.009629947 -0.12843874 0.012549449
000230 d6 01 9a be 6f 78 f0 3d e1 b4 56 bd 12 81 8f 3c
       -0.30079526 0.11741721 -0.052418593 0.0175176
000240 ae ce 9e be 62 1f 8f 3e 9e b4 0d bc 74 44 53 3c
       -0.3101706 0.2795363 -0.0086490195 0.012894738
000250 85 7a e2 be 73 1e 9c be a3 0f ad 3d c2 b3 b7 be
       -0.442341 -0.3049198 0.08450248 -0.35879332
000260 47 6d 63 be 5c 9a d4 3d 12 9b 6e 3d 5d 52 0f 3d
       -0.22209655 0.10381004 0.058253355 0.034990657
000270 3a 5d 23 3d 57 d9 72 3e fa 69 03 3e 9c eb 1c bc
       0.03988383 0.23715721 0.12833396 -0.009577658
000280 90 f2 80 bd 71 88 fd bd b0 74 80 3e 0d a3 5d 3e
       -0.06296265 -0.1237954 0.25089025 0.2164423
000290 0a c4 9c 3d 8b 09 35 bb 05 99 77 3e 0b 8d 81 be
       0.07654579 -0.0027624096 0.24179466 -0.2530292
0002a0 ce aa 95 3b cd d1 04 3e 1c ca b4 bc 37 48 17 3e
       0.0045674806 0.12970658 -0.02206903 0.14773642
0002b0 fa 92 68 3c 2b 84 67 bd ac be ff be 1f cd 3d bd
       0.014195198 -0.05652253 -0.4995016 -0.046338197
0002c0 a0 8d 12 3b 6d 56 dd 3d 26 90 a6 be 22 4f 0a 3e
       0.0022362247 0.108075 -0.32531852 0.1350675
0002d0 03 27 a8 bd 8b 45 89 3e de b6 be 3e c5 88 77 bc
       -0.08210566 0.2681087 0.37248892 -0.015108292
0002e0 1c a6 73 3e 19 94 aa 3e 91 5d 17 be 75 fa 92 be
       0.23793834 0.33316115 -0.14781787 -0.2870671
0002f0 68 c1 09 3d 94 19 01 bc f9 5b f9 bd 8c 15 e6 be
       0.033631712 -0.007879633 -0.121757455 -0.44938314
000300 d4 a4 cd be c9 c2 fe be 53 6a ef bc 3e 45 0b be
       -0.40164816 -0.49757984 -0.029225504 -0.13600633
000310 04 5f bc 3d 6c 7d b8 3e a8 fe 95 bc 2e 9c fe bb
       0.0919781 0.3603319 -0.018309906 -0.007770083
000320 8f 4f 58 3d 09 81 8c 3d 29 5e 48 3e fc ea a4 bb
       0.052810248 0.06860549 0.19567169 -0.005032895
000330 e1 09 2c 3e 6b aa 19 bd fb 35 8c 3e 00 20 a7 39
       0.16800644 -0.03751604 0.27384934 0.00031876564
000340 15 36 a2 3e 19 6b b1 bd 89 58 b6 3b de 87 b1 3c
       0.31681886 -0.086630054 0.0055647534 0.021671232
000350 07 1c 96 3c 84 db 4a bd 12 89 9f 3d 02 ef 24 3f
       0.018323911 -0.049525753 0.07789816 0.64427197
000360 af 82 49 be 51 d7 49 be 14 e0 3a 3d 37 40 ba 3d
       -0.19678758 -0.19711043 0.045623854 0.09094279
000370 20 28 e8 bd d6 82 f2 be ed b0 c6 3d e2 b6 a2 3d
       -0.11335778 -0.47365445 0.09701715 0.079450384
000380 8a c6 a2 3c 57 25 c2 3d e7 40 78 3e 56 b5 28 be
       0.019870061 0.09479778 0.24243508 -0.16475424
000390 19 22 3a be 2f 63 89 bb e1 25 00 bf 1a 37 c7 bd
       -0.1817707 -0.004192732 -0.500578 -0.09727307
0003a0 fa 90 88 bc ab 08 fc be 3d f8 21 3e b0 56 86 bc
       -0.016670693 -0.49225363 0.15817352 -0.016398758
0003b0 02 79 0d 3c 55 19 ec be 6b e5 4b bd b7 e7 90 3e
       0.008634808 -0.46113077 -0.049779337 0.28301784
0003c0 60 9c c8 bd 5a 39 f1 3a e3 b8 17 3f ec 77 9f be
       -0.09795451 0.0018403933 0.5926649 -0.3114618
0003d0 b8 9c 24 bb 13 82 11 be 48 1e c0 be ec fe b4 be
       -0.0025117826 -0.14209776 -0.37523103 -0.3535074
0003e0 2d 6d de bd 5b 56 b4 be 4b 3f 65 be 9b 9e 15 be
       -0.108606674 -0.35222134 -0.22387426 -0.14611284
0003f0 e8 03 19 bf 27 b1 09 3c 8f eb 7f 3e 3c 72 86 bc
       -0.59771585 0.008404053 0.24992202 -0.016411893

fc3.bias f4 [32]
000000 69 05 59 bd d5 f3 22 bc 9c 15 60 3d 89 ea 21 3e
       -0.052983675 -0.009945829 0.05470811 0.15812124
000010 69 c3 ce bc c7 0c 28 be c1 33 0a 3d 5d 55 52 3e
       -0.025239663 -0.16411124 0.033740763 0.20540376
000020 3d 98 b8 3c e5 c7 ab bb e8 bc 0e 3e 8a 0c 11 bd
       0.02253353 -0.005242335 0.1393925 -0.03541235
000030 6a f7 9b 3d 2f 2c 94 3d 4b 92 c0 3d 13 e7 0e 3d
       0.0761555 0.0723499 0.09402903 0.03488834
000040 9f 5a 05 be 77 ee 52 3d 77 8e 8c bc b2 a1 40 3e
       -0.1302285 0.05149695 -0.017157776 0.18811682
000050 50 05 1c 3e 75 10 29 3e 35 c0 d2 3e c7 6c de 3e
       0.15236402 0.16510184 0.41162267 0.43442366
000060 44 19 c0 bc 62 b9 99 bc a6 92 e4 3d de 32 60 3d
       -0.023449548 -0.018765155 0.111607835 0.05473601
000070 90 8d af 3d 4a 45 85 bd 06 98 f1 3c 55 a2 b2 bc
       0.08571923 -0.065073565 0.029491436 -0.021805922

fc4.weight f4 [16, 32]
000000 9c e9 bd bd 26 f0 1b bf 82 51 2a be a8 47 4d 3f
       -0.09273073 -0.6091331 -0.16632655 0.80187464
000010 89 cd 10 bc 37 b5 49 be fc 11 1e 3f 40 b2 31 3e
       -0.008838066 -0.19698034 0.6174619 0.17353153
000020 2e fd 4f 3e 2d f2 79 39 cd f9 1e 3f 23 51 74 3c
       0.20311424 0.00023836708 0.62099916 0.014911923
000030 cb f1 96 be ae 71 be be a5 6f 8f bd 25 3e 22 3f
       -0.29481348 -0.37196106 -0.070037164 0.63376075
000040 5a b5 ae be fe e6 e5 be f7 3f 73 3c 16 6e 89 3e
       -0.34122735 -0.44902796 0.014846793 0.268418
000050 e1 a2 d7 3e e0 da 9b be a1 0e 34 3e b2 ab 13 3e
       0.42116454 -0.30440426 0.17583705 0.14420965
000060 6b df c7 3d 72 52 aa 31 71 56 fd be f4 02 12 be
       0.097594105 4.957024e-09 -0.49480012 -0.14258939
000070 3b f4 4f be 13 d4 1a 3e db 05 e1 3e 5f c8 5f 3c
       -0.2030801 0.15119962 0.4394978 0.013658612
000080 ea 8d 82 bd 8a a3 af bd 02 e7 83 bd a7 3f 91 3e
       -0.06374724 -0.085761145 -0.064405456 0.28368875
000090 db 4a 05 bc 11 58 91 3e a3 82 1c 3e cf d3 a6 be
       -0.008135523 0.28387502 0.15284209 -0.32583472
0000a0 a1 ff 9a be bb 1c 16 38 b1 c0 bc 3e 63 57 fa 3d
       -0.30273154 3.5789544e-05 0.36865762 0.12223699
0000b0 e2 b6 b9 bd 11 93 d5 bc b9 97 cc be b1 13 95 3e
       -0.09068085 -0.026071103 -0.39959505 0.29116586
0000c0 40 88 9f 3e ed 7f ad bd ec 49 6f 3c ed 05 8b be
       0.31158638 -0.084716655 0.014605027 -0.2715296
0000d0 4f 2a fc 3d 1c e3 31 3e 32 79 6a be 05 b3 34 bf
       0.12312757 0.17371792 -0.22897795 -0.7058566
0000e0 b3 21 11 bd fd d6 6e 3c ae d9 48 bd 76 c5 a4 3e
       -0.03543253 0.014577624 -0.04903572 0.321819
0000f0 88 b6 cb 3e 62 9a 0c 3d 0c b6 ee 3e 36 aa a4 01
       0.39787698 0.03432692 0.46623266 6.0488326e-38
000100 38 19 cd 3e 89 f3 97 3e 1c 85 03 3f 93 7b cf be
       0.40058303 0.2967799 0.51374984 -0.40523967
000110 21 ce 88 3a 9a b9 10 3b c7 10 70 be ef 15 55 3e
       0.0010437408 0.0022083283 -0.234439 0.20809148
000120 74 bc 0a bf e2 22 34 ba fa fd e3 be a6 d6 a2 be
       -0.54193807 -0.0006871653 -0.44529706 -0.3180439
000130 a6 35 ab 3e a9 be 50 3e f5 38 54 be 24 ec 31 bf
       0.33439368 0.20385231 -0.20724852 -0.69500947
000140 82 1c 12 3d d2 5b 16 3f b6 3f 80 bc b1 53 81 3e
       0.03567172 0.58733857 -0.01565538 0.25259164
000150 78 17 0a bf 95 58 c3 3e a6 0b 20 3d 7a ad 77 3e
       -0.5394206 0.3815352 0.03907361 0.2418727
000160 ec 72 cd be a6 2d 77 bc 53 38 f5 3e e3 80 8e 3e
       -0.4012674 -0.015086567 0.47894534 0.27832708
000170 be 01 0b be f3 15 c4 be b3 22 00 bf 00 85 99 bc
       -0.13574883 -0.38297996 -0.50052947 -0.018740177
000180 41 5a 86 3e ff cf e6 3e e1 85 5b 3e b6 85 eb be
       0.26240733 0.45080563 0.2143779 -0.4600045
000190 6b 44 1f 3c f5 93 e8 bd 88 1d ce be 55 55 6c 3e
       0.009720902 -0.113563456 -0.40256906 0.23079427
0001a0 65 c6 0b bf 1f 65 96 ba d4 28 f4 be 38 8a a7 be
       -0.545996 -0.0011474228 -0.476874 -0.3272264
0001b0 e1 75 87 3e e0 5f d6 3e a7 2d 63 be e7 9a 3a bf
       0.26457122 0.41870022 -0.22185384 -0.7289261
0001c0 ae 42 f6 3d 58 c3 b5 3e 94 3e 83 bc f2 ac 13 3e
       0.12024437 0.35500598 -0.01602105 0.14421442
0001d0 5a a5 1b bf 5c eb d7 3e 24 6a 04 3e b5 87 9b 3e
       -0.6079918 0.42171752 0.12931114 0.30376974
0001e0 13 fc 9f be 8d 80 b0 bc 10 e1 a9 3e d3 6c a4 3e
       -0.31247005 -0.021545673 0.33179522 0.32114276
0001f0 bd bd c8 bd bf 36 bc be 1a 4d 08 bf 00 4f a7 bc
       -0.09801815 -0.36760518 -0.5324265 -0.020423412
000200 59 73 a7 3e 32 b6 88 3e a2 10 bb 3e da 76 a3 be
       0.3270519 0.26701504 0.36536127 -0.31926614
000210 ec 5b f3 bb 65 4f a7 bd e7 54 54 be 4d 64 98 3e
       -0.0074267294 -0.0816944 -0.20735513 0.29764023
000220 97 0d e3 be cb e7 95 b8 9c e9 16 bf d4 76 f0 bd
       -0.44346306 -7.1480485e-05 -0.5895021 -0.11741415
000230 5d 85 ec 3e df 31 94 3e bf d5 38 be 40 f5 14 bf
       0.46195498 0.289443 -0.18050288 -0.5818672
000240 71 3d 8a bc 6f 82 e8 3e c4 6e 83 bc c8 29 86 3e
       -0.016875 0.45412013 -0.016044028 0.26203752
000250 90 ad a8 be b2 28 08 3f 5e e6 4b 3c a9 de fb 3d
       -0.32944918 0.53187096 0.012445061 0.122983284
000260 12 40 4d be b3 7a a3 bc 42 13 b0 3e 96 3b c2 3e
       -0.20043972 -0.019955968 0.34389693 0.37936085
000270 03 3d 85 bd 3d b3 18 be cb ed 1d bf 54 bc 51 bc
       -0.06505778 -0.14912124 -0.6169097 -0.012801249
000280 1c 78 c0 3e 13 04 01 3f 50 30 f9 3e 38 16 af be
       0.37591636 0.5039684 0.48669672 -0.3419664
000290 88 64 0c 3c ba 4b 01 3e c6 18 a4 be 13 37 b2 3e
       0.00856889 0.12626544 -0.3205015 0.34807643
0002a0 d5 a9 d8 be de 9e dc b9 4b 5a 1d bf e1 a7 70 be
       -0.42317072 -0.00042080035 -0.614659 -0.2350154
0002b0 19 f3 d1 3e cc 9c 02 3e d7 5d d6 3d 02 88 01 bf
       0.4100578 0.12755126 0.10467117 -0.50598156
0002c0 a2 a0 36 be 1e b2 27 3f 41 43 69 bc cb 25 28 3e
       -0.17834714 0.6550616 -0.014237226 0.16420667
0002d0 ab f4 c5 be 49 d7 13 3e 6e 61 e4 3d cd 26 be 3d
       -0.3866323 0.14437594 0.11151396 0.092847444
0002e0 73 6b d3 be ea 55 89 bc 3a 51 63 3e 24 a8 d1 3e
       -0.41292915 -0.0167646 0.22198954 0.40948594
0002f0 17 36 00 be 43 03 f0 be e9 1e d1 be 51 23 97 bc
       -0.12520634 -0.46877488 -0.40843895 -0.018449457
000300 1b 87 e5 be be 5d 39 bf 94 8b cd be 89 ff 63 3f
       -0.4482964 -0.72408664 -0.40145552 0.8906179
000310 bc aa 27 bc 11 9c 55 be d8 bf ed 3e b2 c4 1b 3e
       -0.010233577 -0.20860316 0.46435428 0.15211752
000320 f6 8a 4c 3e 82 42 de 3a 04 d6 42 3f 6c 1c 0d be
       0.19974884 0.0016957077 0.7610781 -0.13780373
000330 62 90 7e be 04 2c 01 bf 36 4f a1 3e f5 0d 7e 3f
       -0.24859765 -0.5045779 0.31505746 0.99240047
000340 05 9e 86 bc 96 cc ed be 4e 07 8b 3c 1b 04 4f 3e
       -0.016432771 -0.4644515 0.016971257 0.2021641
000350 bb e4 41 3f 5c 8c b9 be f6 29 9f 3e 1f 78 90 3e
       0.7573964 -0.36239898 0.310867 0.28216645
000360 70 b6 81 3d 98 08 90 32 fc 91 eb be f4 5f 04 bf
       0.06333625 1.6767714e-08 -0.46009815 -0.5170891
000370 98 f2 20 be 45 fc c0 3e cd aa c7 3e e1 c9 a0 3c
       -0.15717542 0.37692466 0.38997498 0.019627513
000380 eb 15 b7 bb 90 3b 08 bc 6f 2d 9d bb 48 4c 85 bb
       -0.0055873296 -0.008314982 -0.004796676 -0.0040679313
000390 30 ab 45 01 88 c1 9a 3b c9 7c ed bc 82 46 b2 bb
       3.6306006e-38 0.0047227778 -0.028990166 -0.005440534
0003a0 dc e3 64 bc 6c f1 69 81 3a 30 88 bb 05 d3 2d bc
       -0.0139703415 -4.2968553e-38 -0.0041561397 -0.010609393
0003b0 9d e1 b0 bb 40 2d 38 bc 73 ed c7 3b f3 bf cb bb
       -0.005397989 -0.011241257 0.006101304 -0.0062179505
0003c0 35 51 02 bc ff 02 1f bc 4e a2 a2 80 c2 56 22 bd
       -0.007953932 -0.009705304 -1.4935574e-38 -0.03963352
0003d0 2b e2 c1 bb 62 8b 8f 3c 5f f0 3e bd c3 ef aa bc
       -0.005916854 0.017522518 -0.046615954 -0.02086628
0003e0 a8 b9 c1 bb 60 88 07 80 3d d8 93 bb c7 fb 43 bc
       -0.0059120245 -6.9177e-40 -0.0045118616 -0.011961884
0003f0 dd 69 25 bc 88 ac 28 bc 39 ee f9 bc b0 6a 1c 01
       -0.010096041 -0.010295041 -0.030509101 2.872922e-38

fc4.bias f4 [16]
000000 a0 cc 49 3c 25 60 87 be c0 b3 26 3e b1 89 3f 3e
       0.012316853 -0.2644054 0.16279507 0.18704869
000010 fa b9 58 3d 2c d6 2b 3e d2 1f e9 3d 4c b7 11 bd
       0.052911736 0.16780919 0.11383022 -0.035575196
000020 7c 1b 12 3e aa 21 de bc 36 d1 a9 bd 1d 04 1d 3e
       0.14268297 -0.027115662 -0.08291857 0.153336
000030 c3 d8 87 3e 3b a2 ea bd ba 6c ac 3c cb 7f 84 be
       0.26532564 -0.11456724 0.021047939 -0.25878748

output.weight f4 [1, 16]
000000 c4 4f 35 bf f8 78 4e bf 2a 09 49 3f 07 51 51 3f
       -0.7082484 -0.80653334 0.7852961 0.8176426
000010 c7 a1 50 3f 87 c3 2e 3f 78 89 60 bf 1b 3d 0b bb
       0.8149685 0.682671 -0.8770976 -0.0021246138
000020 5c 12 41 3f 2c 24 ef 3e d6 16 1d 3f 60 c2 5b bf
       0.7541864 0.46707284 0.6136297 -0.8584347
000030 d2 01 e0 3e 3a dc 2b bf 3d 49 25 3e 12 96 00 bf
       0.4375139 -0.67132914 0.1614122 -0.5022899
